Evaluating_and_model_imrpovement/layer.pth (torch, 35276 bytes, 2 tensors)

weight f4 [128, 64]
0.03685546 0.2924856 0.8701774 0.31015325 0.07159376 0.15004635 0.6789837 0.32799047
0.966813 0.20385474 0.90551144 0.36248565 0.22889608 0.5578167 0.52737963 0.15227735
0.23397362 0.48948872 0.27830088 0.45712495 0.82514185 0.47947258 0.31800306 0.85772264
0.489954 0.46287555 0.12927657 0.23352486 0.8256472 0.82090783 0.9396069 0.78070474
0.3615666 0.6398978 0.6203205 0.5630706 0.83964074 0.2672665 0.032639265 0.10808599
0.73251265 0.81253016 0.9568226 0.76500046 0.8426272 0.9246387 0.5468323 0.38227874
0.07418549 0.33537412 0.5206119 0.8656059 0.0883823 0.5854821 0.6709489 0.33318573
0.85360605 0.8727258 0.8881249 0.045906067 0.77033085 0.68136203 0.49835938 0.48552197
0.038396 0.0040450096 0.9671711 0.4421788 0.7780917 0.77674943 0.017028034 0.48404574
0.06310475 0.117248654 0.88310677 0.05836612 0.26701128 0.7187356 0.089134514 0.7355252
0.98869354 0.45425987 0.12945664 0.6999715 0.2142433 0.81407815 0.2512551 0.55978245
0.33545488 0.88004595 0.6460495 0.23063046 0.15614545 0.8064004 0.97399503 0.80086374
0.30969465 0.1400941 0.13481265 0.31286567 0.4972129 0.35643226 0.68957436 0.4692461
0.34276885 0.1498608 0.5934565 0.78228974 0.22876555 0.8506566 0.27784187 0.17496455
0.29389048 0.6202877 0.49839067 0.47918588 0.88277555 0.6430823 0.9979857 0.9025148
0.8609558 0.9582708 0.30265307 0.0055598617 0.32510328 0.93459445 0.9823068 0.09230691
0.7072485 0.84707284 0.79038996 0.6045552 0.7681865 0.3418123 0.079867125 0.7260721
0.17417473 0.018243134 0.40855926 0.6026839 0.5146313 0.898313 0.72369534 0.51354724
0.06911874 0.6241054 0.89235854 0.9413836 0.91208035 0.9855149 0.10502088 0.7805491
0.35471988 0.6442117 0.9151511 0.5003057 0.99017334 0.124593675 0.523918 0.29938626
0.19214094 0.68797123 0.42788774 0.08554566 0.4196086 0.8483242 0.8480579 0.85470307
0.23574585 0.380881 0.008443475 0.7009429 0.87009054 0.19296879 0.7694241 0.13741714
0.38647234 0.06912905 0.10456836 0.1587503 0.6981202 0.15008765 0.5238933 0.89550674
0.65958476 0.8405856 0.07469022 0.46959448 0.19216394 0.9073461 0.9680047 0.35077906
0.5933297 0.33313912 0.4760272 0.15760905 0.19604433 0.26640153 0.4558282 0.75727206
0.85603046 0.8317964 0.34379077 0.48874032 0.02383864 0.9560241 0.43108308 0.44447142
0.52754736 0.1624152 0.21446568 0.5099006 0.41132134 0.21498746 0.8651834 0.21467423
0.06094724 0.78893095 0.55794394 0.57128984 0.5517519 0.8200181 0.94657123 0.7826425
0.56115323 0.29026788 0.15453714 0.9389347 0.16427332 0.66903865 0.7882099 0.1073004
0.05612439 0.36431342 0.8615957 0.33112317 0.14833474 0.46836567 0.035191715 0.8905881
0.19479942 0.89078724 0.66401166 0.3324836 0.16876668 0.5899473 0.5574092 0.509374
0.24965519 0.8102231 0.58319837 0.29237288 0.35175043 0.0603745 0.10880917 0.6614236
00000000: c0f5 163d acc0 953e f2c3 5e3f 68cc 9e3e
00000010: c09f 923d c0a5 193e e0d1 2d3f 5eee a73e
00000020: 0f81 773f 4cbf 503e 99cf 673f b897 b93e
00000030: bc63 6a3e 13cd 0e3f 5a02 073f 98ee 1b3e
00000040: c896 6f3e 449e fa3e 747d 8e3e 480c ea3e
00000050: 7f3c 533f 6e7d f53e 4cd1 a23e b693 5b3f
00000060: 40db fa3e 06fe ec3e 1461 043e 2421 6f3e
00000070: 9d5d 533f 0427 523f 148a 703f 44dc 473f
00000080: 421f b93e 58d0 233f 53cd 1e3f 6525 103f
00000090: b2f2 563f 28d7 883e c0b0 053d 305c dd3d
000000a0: f385 3b3f fa01 503f 53f2 743f 12d7 433f
000000b0: 6bb6 573f 1fb5 6c3f 34fd 0b3f 0aba c33e
000000c0: 90ee 973d 28b6 ab3e d246 053f 5998 5d3f
000000d0: c801 b53d 28e2 153f 4fc3 2b3f 5297 aa3e
000000e0: ed85 5a3f f56a 5f3f 275c 633f 0008 3c3d
000000f0: 6734 453f be6d 2e3f f628 ff3e 5696 f83e
00000100: 2045 1d3d 008c 843b 8698 773f 4265 e23e
00000110: 0531 473f 0dd9 463f 607e 8b3c d8d4 f73e
00000120: 103d 813d 1020 f03d 4913 623f 5011 6f3d
00000130: b4b5 883e 0eff 373f 288c b63d 614b 3c3f
00000140: 051b 7d3f c094 e83e 4890 043e 5531 333f
00000150: 9862 5b3e 6d67 503f 82a4 803e e74d 0f3f
00000160: bec0 ab3e b14a 613f 8063 253f 642a 6c3e
00000170: 98e4 1f3e 4270 4e3f bd57 793f 6805 4d3f
00000180: 4c90 9e3e d474 0f3e 540c 0a3e ee2f a03e
00000190: b092 fe3e 4a7e b63e f287 303f 0641 f03e
000001a0: 667f af3e 1c75 193e c4ec 173f 2444 483f
000001b0: 8441 6a3e a2c4 593f 4a41 8e3e e829 333e
000001c0: d078 963e 2dcb 1e3f 102d ff3e da57 f53e
000001d0: 94fd 613f 0ba1 243f fe7b 7f3f 360b 673f
000001e0: 9967 5c3f 3c51 753f 58f5 9a3e 802f b63b
000001f0: f073 a63e 9541 6f3f 7578 7b3f 680b bd3d
00000200: 3d0e 353f c4d9 583f ff56 4a3f 21c4 1a3f
00000210: dfa7 443f 0602 af3e 6091 a33d dcdf 393f
00000220: dc5a 323e a072 953c ae2e d13e 7e49 1a3f
00000230: e0be 033f d7f7 653f 1944 393f d577 033f
00000240: 208e 8d3d 5fc5 1f3f 9c71 643f 84fe 703f
00000250: 197e 693f b44a 7c3f 3015 d73d 11d2 473f
00000260: d89d b53e 0feb 243f 5847 6a3f 0914 003f
00000270: 007c 7d3f f82a ff3d 7d1f 063f 2849 993e
00000280: 98c0 443e e21e 303f 1a14 db3e 9032 af3d
00000290: f0d6 d63e c62b 593f 531a 593f d2cd 5a3f
000002a0: 5c67 713e d602 c33e 8056 0a3c fe70 333f
000002b0: 41be 5e3f 9c99 453e faf8 443f 14b7 0c3e
000002c0: b4df c53e 8893 8d3d f027 d63d 708f 223e
000002d0: 01b8 323f 94b0 193e df1d 063f ee3f 653f
000002e0: 8cda 283f 9e30 573f 30f7 983d b06e f03e
000002f0: a0c6 443e d647 683f 28cf 773f 5099 b33e
00000300: 75e4 173f 3691 aa3e d6b9 f33e 4464 213e
00000310: d8bf 483e c865 883e 5062 e93e 95dc 413f
00000320: d024 5b3f 9cf0 543f 5805 b03e 2c3c fa3e
00000330: 4049 c33c ffbd 743f ecb6 dc3e c291 e33e
00000340: 580d 073f 2c50 263e e49c 5b3e d988 023f
00000350: b698 d23e ac25 5c3e a97c 5d3f 90d3 5b3e
00000360: d0a3 793d 61f7 493f 6ad5 0e3f 0d40 123f
00000370: 9d3f 0d3f b5ec 513f 7e52 723f 425b 483f
00000380: bda7 0f3f fe9d 943e fc3e 1e3e 065e 703f
00000390: 4437 283e 1e46 2b3f 20c8 493f 50c0 db3d
000003a0: b0e2 653d 4a87 ba3e 8991 5c3f fa88 a93e
000003b0: 10e5 173e a0cd ef3e 3025 103d 95fd 633f
000003c0: 8079 473e a20a 643f abfc 293f 4a3b aa3e
000003d0: 2cd1 2c3e c906 173f 5fb2 0e3f 5666 023f
000003e0: 9ca5 7f3e c86a 4f3f 7d4c 153f e6b1 953e
000003f0: a218 b43e 404b 773d 58d7 de3d 0f53 293f

bias f4 [128]
-0.04389374 -0.0863999 -0.024859771 0.02021709 -0.006988615 -0.05194746 0.057771057 -0.024834827
-0.027925998 -0.021402434 0.042474985 0.09503223 -0.029442653 -0.065642804 0.124414176 0.12334481
-0.09038077 -0.06295043 -0.08371025 -0.0062793046 0.092176095 0.12053588 0.060771257 -0.10202314
-0.051780432 0.0009274632 -0.07955432 0.06286602 -0.054940626 -0.043705687 0.05922322 -0.033447847
-0.11895381 0.025698408 0.0134601 -0.026166007 0.045267373 -0.11818877 -0.028035477 0.007529378
0.014099985 0.09148072 0.018433437 0.017225206 0.008389533 -0.0086431205 0.054537624 0.08408296
0.05980991 -0.0569461 -0.09183942 0.062113836 -0.05393949 0.058267638 -0.022384226 -0.054328293
0.056683466 0.11178137 0.08061658 0.07851665 -0.106050104 -0.06939489 -0.03896898 -0.10514112
0.086126745 0.11992559 0.020421773 -0.023880407 -0.0410029 -0.039180472 -0.07662384 -0.056819275
-0.0076289475 -0.11014682 -0.09023258 0.022996977 -0.0034893155 0.04640451 0.025565132 0.064845026
0.045955136 -0.056070894 -0.08832459 -0.0017207265 0.0974984 0.044332653 0.005324468 0.12256439
-0.051241323 0.017185792 0.056961566 0.040742412 -0.038587958 -0.07032777 -0.10756342 -0.010283038
0.0019081235 -0.021348715 0.09064512 0.025501534 0.072771296 -0.060867578 0.06368524 -0.11629377
-0.1184126 0.08487597 0.053726897 -0.09406255 0.060769036 0.08740623 -0.12340635 -0.039736852
-0.0034821928 0.10193434 0.0038330406 0.003762424 -0.0147393495 0.013161495 0.015629247 -0.06182012
0.07182124 -0.047071412 -0.09948163 0.065971375 -0.008647516 0.020638674 -0.1228243 0.08065131
00000000: ecc9 33bd 6ef2 b0bd b8a6 cbbc 509e a53c
00000010: c000 e5bb dcc6 54bd 58a1 6c3d 6872 cbbc
00000020: 10c5 e4bc 2854 afbc 40fa 2d3d 42a0 c23d
00000030: b831 f1bc bc6f 86bd dccc fe3d 349c fc3d
00000040: 8e19 b9bd 28ec 80bd 4870 abbd a0c2 cdbb
00000050: d2c6 bc3d 84db f63d 48eb 783d 82f1 d0bd
00000060: b817 54bd 0021 733a 60ed a2bd e6bf 803d
00000070: 6c09 61bd bc04 33bd 0c94 723d 9c00 09bd
00000080: 0e9e f3bd 7885 d23c c087 5c3c 185a d6bc
00000090: 486a 393d f40c f2bd a8aa e5bc 00b9 f63b
000000a0: a003 673c 3e5a bb3d b801 973c e01b 8d3c
000000b0: 4074 093c e09b 0dbc d862 5f3d b033 ac3d
000000c0: 3cfb 743d 5040 69bd 4e16 bcbd 146b 7e3d
000000d0: a8ef 5cbd 0caa 6e3d 205f b7bc 5887 5ebd
000000e0: ec2c 683d a2ed e43d 4e1a a53d 56cd a03d
000000f0: cc30 d9bd e81e 8ebd f09d 1fbd 3a54 d7bd
00000100: 3863 b03d 8c9b f53d 904b a73c d8a0 c3bc
00000110: a8f2 27bd b47b 20bd f6ec 9cbd 54bb 68bd
00000120: 40fc f9bb a894 e1bd dccb b8bd 2864 bc3c
00000130: 00ad 64bb a812 3e3d f86d d13c 78cd 843d
00000140: 743b 3c3d 98aa 65bd 86e3 b4bd 008a e1ba
00000150: 3ead c73d 2896 353d e078 ae3b 0a03 fb3d
00000160: 6ce2 51bd 38c9 8c3c 8850 693d 84e1 263d
00000170: 680e 1ebd 0208 90bd 364a dcbd 307a 28bc
00000180: 001a fa3a 80e3 aebc 26a4 b93d 98e8 d03c
00000190: 1e09 953d 4850 79bd 686d 823d 6e2b eebd
000001a0: 4e82 f2bd 74d3 ad3d bc10 5c3d dea3 c0bd
000001b0: f4e8 783d 0a02 b33d 78bc fcbd 1cc3 22bd
000001c0: 8035 64bb f4c2 d03d c033 7b3b 0093 763b
000001d0: 507d 71bc 50a3 573c e808 803c 1837 7dbd
000001e0: 0417 933d f4cd 40bd 06bd cbbd 001c 873d
000001f0: 50ae 0dbc 7012 a93c 4e8b fbbd 842c a53d
